Assets/Resources/individual_10.onnx (onnx, 5615 bytes, 7 tensors)

layer1.weight f4 [16, 5]
-0.08240822 -0.20764576 1.2184871 -0.14828587 -0.29687515 0.40002078 -0.25602242 0.29759103
-1.1227993 -1.2450737 0.022326231 -0.41929564 0.18091989 -0.11361301 -0.074038565 -0.2522241
-0.12697482 0.28811306 -0.06071475 0.34596616 -0.020012915 -0.27358305 0.1219483 0.26219398
-0.38424346 -0.21923468 -0.44420472 0.19716954 -0.0045413375 -0.10053244 -0.11481941 -0.132839
0.32537127 0.42796928 -0.042140156 -0.07005882 -0.0061246455 0.20150822 0.34501463 0.3169521
0.33823943 0.31357634 0.17403424 0.15580672 0.1599285 -0.044149816 0.63903284 0.2603098
-0.06292647 -0.28557125 0.12968582 -0.17283386 -0.43704763 -0.11460143 0.12059647 -0.08811137
0.5836242 0.3911361 0.426795 0.046883434 0.3812374 0.17851794 -0.08531794 0.47700593
-0.41250762 0.2077272 -0.24999496 -0.09365523 -0.047155857 -0.32708466 0.04456383 -0.0774436
0.2947777 0.5152641 0.23858392 0.22837591 -0.11502072 0.21356279 -0.07718533 -0.33550167
00000000: a4c5 a8bd 17a1 54be 63f7 9b3f 40d8 17be
00000010: 0500 98be 86cf cc3e 5f15 83be da5d 983e
00000020: e3b7 8fbf 935e 9fbf 80e5 b63c ebad d6be
00000030: 1043 393e f0ad e8bd 88a1 97bd 8423 81be
00000040: b005 02be 8e83 933e 08b0 78bd 7a22 b13e
00000050: 20f2 a3bc 1413 8cbe 08c0 f93d 4a3e 863e
00000060: 8fbb c4be 0e7f 60be cd6e e3be d0e6 493e
00000070: 80cf 94bb f4e3 cdbd 7026 ebbd f206 08be
00000080: 1097 a63e ca1e db3e 289b 2cbd 007b 8fbd
00000090: 40b1 c8bb 2c58 4e3e c2a5 b03e 8c47 a23e
000000a0: b82d ad3e 148d a03e 0836 323e cc8b 1f3e
000000b0: 4cc4 233e 70d6 34bd a897 233f 5347 853e
000000c0: 98df 80bd 6536 92be 5ccc 043e 5cfb 30be
000000d0: b5c4 dfbe 28b4 eabd 48fb f63d bc73 b4bd
000000e0: 6568 153f fe42 c83e e084 da3e d808 403d
000000f0: 8c31 c33e 68cd 363e 2cbb aebd 1f3a f43e
00000100: 3334 d3be 70b6 543e aefe 7fbe 50ce bfbd
00000110: 8026 41bd a477 a7be 9088 363d c09a 9ebd
00000120: 1aed 963e 59e8 033f 584f 743e 60db 693e
00000130: fc8f ebbd 34b0 5a3e 5813 9ebd e0c6 abbe

layer1.bias f4 [16]
0.55124664 0.44787708 0.29752278 -0.24214461 0.02884847 -0.3422281 -0.28807232 -0.13935354
0.25480804 0.24766505 -0.07239175 -1.0793186 -0.1299034 0.44664627 -0.30555183 -0.21825543
00000000: 801e 0d3f 2550 e53e e854 983e c2f4 77be
00000010: a053 ec3c 8638 afbe 377e 93be b2b2 0ebe
00000020: 3376 823e e89b 7d3e 2042 94bd 1d27 8abf
00000030: 6605 05be d2ae e43e 4a71 9cbe 5a7e 5fbe

layer2.weight f4 [32, 16]
0.21905565 0.04561019 -0.23587921 -0.00620085 -0.011091411 0.034887075 0.17229125 -0.13212508
0.15315947 -0.2217716 -0.22028148 0.11974102 0.22176245 0.01752159 -0.18808389 -0.16414416
-0.24580342 -0.2456173 0.1888608 -0.013646543 -0.08019671 0.05748707 0.23676121 0.23103413
0.111679524 0.20353448 -0.1682598 -0.015638322 0.08331883 0.17820773 -0.1275039 0.15040174
-0.088820666 -0.12256953 0.12630743 0.20180368 0.053424597 -0.22836325 -0.07853413 -0.12976256
0.03093347 0.20904624 0.18030086 -0.022138476 -0.15125847 -0.14146179 0.21622753 -0.24066284
-0.15944973 0.016198546 -0.19077277 0.113913834 -0.16503212 -0.19519898 0.15018526 -0.20055848
0.124553055 -0.24917164 -0.032599688 0.0779272 -0.0029576123 -0.18644947 0.0936411 -0.21257207
-0.1608231 -0.04275483 0.11447692 -0.19096449 -1.3528813 0.17770636 0.1212129 0.13255882
-0.15306804 -0.07595977 -0.14251801 0.16757062 0.067929894 0.014593393 -0.07500461 -0.15057898
0.22925985 -0.113015115 0.20840997 -0.11898211 0.14363885 0.12655935 0.14464375 0.17110175
0.17818576 0.021341115 -0.03723094 0.24824482 0.22000179 -0.11910406 0.12190065 -0.20803532
-0.21803126 -0.2422157 -0.17155325 -0.004592538 0.15669692 -0.22521201 -0.0043112934 0.07786259
-0.2175979 -0.16655731 0.18982959 -0.006590992 0.17411846 -0.026192218 0.010429293 -0.21234521
0.18140352 0.09958264 0.008081138 0.21569633 -0.17953384 0.03892225 0.14384475 -0.03277099
0.06438759 -0.029026777 -0.21724448 0.09256476 0.02913028 0.18249395 -0.20562863 -0.22217464
0.20902243 0.13728574 0.0827229 -0.10925123 -0.01554054 0.0182212 -0.10689452 0.100837916
-0.24547115 0.18770489 0.18696699 -0.092072606 -0.1236203 -0.21350604 0.13843691 -0.029380113
0.052390695 0.08332795 0.16136846 0.2464189 0.19070736 -0.19266105 -0.1061936 0.07385242
0.2250599 0.070864975 0.1246714 0.017273247 -0.08059242 0.2390005 -0.85207486 -0.12844723
-0.005519241 -0.037211895 0.0648216 0.06600639 0.049738437 0.07480073 0.07731986 -0.13107532
-0.12255144 0.015926242 -0.24601021 -0.18687066 0.049792975 0.07341653 -0.18258059 0.014193535
0.166816 -0.16796228 -0.011354089 0.10171467 -0.03754261 -0.15427682 -0.07114798 0.06092161
-0.012757927 -0.05281058 0.009764105 0.08021161 -0.18792301 -0.108576596 -0.086880684 -0.03003177
0.14415246 0.18211114 -0.12081477 -0.16980365 -0.14008018 -0.00535354 -0.16750246 -0.16258192
-0.1648862 -0.08682594 0.1251624 -0.22862336 -0.16703552 -0.021345675 0.11466691 0.2090717
-0.24109715 -0.19883248 -0.19460556 0.14209032 0.036293596 -1.1422725 0.07321733 -0.23497552
-0.15263581 -0.025290221 0.14876002 0.15394044 -0.0023887157 -0.116971105 0.15247309 -0.037326455
-0.17862535 -0.13929415 -0.18045965 -0.0032803118 0.9567682 0.067043275 -0.15571237 0.11681691
-0.1306208 0.21510848 0.14167061 0.21895942 0.2401985 -0.16579598 -0.24475712 -0.119129
0.10517436 -0.21604413 0.19891196 -0.042521775 -0.14157096 0.10816917 0.025536627 -0.039141685
-0.0034252107 0.043269575 0.101929694 0.22803608 0.13725466 -0.012201428 -0.013610542 0.23696956
00000000: 2050 603e c0d1 3a3d 528a 71be 8030 cbbb
00000010: c0b8 35bc c0e5 0e3d 1e6d 303e cc4b 07be
00000020: d6d5 1c3e 1818 63be 7891 61be c83a f53d
00000030: b215 633e 7089 8f3c 1099 40be 6815 28be
00000040: e4b3 7bbe 1a83 7bbe ba64 413e c095 5fbc
00000050: 2c3e a4bd 9077 6b3d 8871 723e 3694 6c3e
00000060: 3cb8 e43d 586b 503e 4c4c 2cbe f01b 80bc
00000070: 10a3 aa3d 167c 363e 6290 02be ea02 1a3e
00000080: 9ce7 b5bd bc05 fbbd bc56 013e a0a5 4e3e
00000090: c0d3 5a3d 0ed8 69be 80d6 a0bd 7ae0 04be
000000a0: 3068 fd3c 3810 563e caa0 383e c05b b5bc
000000b0: 80e3 1abe 5cdb 10be c06a 5d3e 5270 76be
000000c0: ca46 23be d0b2 843c f059 43be a84b e93d
000000d0: 2efe 28be 3ee2 47be 2aca 193e 345f 4dbe
000000e0: ac15 ff3d da26 7fbe 4087 05bd 4c98 9f3d
000000f0: 80d4 41bb 9cec 3ebe e8c6 bf3d 7eac 59be
00000100: d0ae 24be b01f 2fbd e072 ea3d 328c 43be
00000110: 372b adbf a8f8 353e 783e f83d 80bd 073e
00000120: debd 1cbe cc90 9bbd 3ef0 11be a297 2b3e
00000130: d41e 8b3d 2019 6f3c 049c 99bd 6031 1abe
00000140: 18c3 6a3e 7874 e7bd 6c69 553e e4ac f3bd
00000150: 1016 133e c698 013e 7e1d 143e 4c35 2f3e
00000160: 5476 363e 90d3 ae3c 787f 18bd e433 7e3e
00000170: 2648 613e d4ec f3bd 0ca7 f93d 3607 55be
00000180: 9643 5fbe 6407 78be a8ab 2fbe 007d 96bb
00000190: 2875 203e fa9d 66be c045 8dbb 6c76 9f3d
000001a0: fcd1 5ebe 008e 2abe b062 423e 40f9 d7bb
000001b0: 1c4c 323e 1091 d6bc a0df 2a3c 0671 59be
000001c0: d8c1 393e fcf1 cb3d c066 043c 80df 5c3e
000001d0: b8d7 37be f06c 1f3d 0a4c 133e e03a 06bd
000001e0: a4dd 833d 90c9 edbc 5675 5ebe 9892 bd3d
000001f0: a0a2 ee3c b2df 3a3e 5090 52be c081 63be
00000200: fa09 563e a294 0c3e a06a a93d 1cbf dfbd
00000210: c09d 7ebc a044 953c 84eb dabd 1c84 ce3d
00000220: ca5c 7bbe b635 403e 4674 3f3e 9090 bcbd
00000230: a42c fdbd 54a1 5abe 68c2 0d3e 90ae f0bc
00000240: a097 563d d8a7 aa3d c63d 253e 3c55 7c3e
00000250: ca48 433e f048 45be 087c d9bd f03f 973d
00000260: 1a76 663e a821 913d b853 ff3d a080 8d3c
00000270: a40d a5bd 8cbc 743e 9421 5abf ac87 03be
00000280: c0da b4bb 806b 18bd 30c1 843d 5c2e 873d
00000290: 88ba 4b3d 2031 993d e059 9e3d 9c38 06be
000002a0: 40fc fabd c077 823c 1aea 7bbe 065b 3fbe
000002b0: b8f3 4b3d 685b 963d 68f6 3abe 008c 683c
000002c0: d0d1 2a3e 4efe 2bbe 8006 3abc c84f d03d
000002d0: 48c6 19bd befa 1dbe 08b6 91bd f088 793d
000002e0: a006 51bc e84f 58bd a0f9 1f3c fc45 a43d
000002f0: e46e 40be 685d debd 80ee b1bd 3005 f6bc
00000300: b49c 133e 587b 3a3e bc6d f7bd 02e1 2dbe
00000310: 2e71 0fbe c06c afbb c485 2bbe e07b 26be
00000320: eed7 28be ccd1 b1bd 922a 003e 3e1c 6abe
00000330: 5c0b 2bbe 20dd aebc 7cd6 ea3d e416 563e
00000340: 2ce2 76be be9a 4bbe ae46 47be 2080 113e
00000350: 98a8 143d fc35 92bf f8f2 953d 6c9d 70be
00000360: 904c 1cbe 702d cfbc 8c54 183e 90a2 1d3e
00000370: 008c 1cbb 8c8e efbd e821 1c3e a0e3 18bd
00000380: 90e9 36be 20a3 0ebe 6aca 38be 80fa 56bb
00000390: c3ee 743f fc4d 893d 1073 1fbe b43d ef3d
000003a0: 76c1 05be 6645 5c3e 1a12 113e e636 603e
000003b0: 98f6 753e 6cc6 29be 9ca1 7abe e8f9 f3bd
000003c0: a865 d73d ac3a 5dbe 94af 4b3e 502b 2ebd
000003d0: faf7 10be cc87 dd3d 3032 d13c 0853 20bd
000003e0: 8079 60bb 703b 313d 84c0 d03d 4a82 693e
000003f0: 7c8c 0c3e 80e8 47bc c0fe 5ebc 26a8 723e

layer2.bias f4 [32]
0.23757237 0.09252787 0.14378956 0.0058172047 0.460331 -0.24635103 0.10147604 0.16966727
-0.114209384 -0.016580164 0.115063876 -0.20445415 0.24925789 0.25065747 0.31054598 0.14476031
0.14189783 -0.12523964 -0.046524912 -0.013274461 0.087888 0.047851205 0.2017451 0.001758784
-0.10245967 -0.1313771 0.05919698 0.023427933 -0.055998176 -0.09646326 0.2387133 -0.19117576
00000000: 2c46 733e 407f bd3d 923d 133e 409e be3b
00000010: 81b0 eb3e 7243 7cbe acd2 cf3d 42bd 2d3e
00000020: 9ce6 e9bd 20d3 87bc 9ca6 eb3d 6e5c 51be
00000030: 763d 7f3e 2d56 803e e2ff 9e3e 0c3c 143e
00000040: aa4d 113e d23e 00be e890 3ebd 207d 59bc
00000050: a0fe b33d a0ff 433d 4496 4e3e 0087 e63a
00000060: 60d6 d1bd b887 06be 8878 723d f0eb bf3c
00000070: 585e 65bd 888e c5bd 4271 743e 94c3 43be

layer3.weight f4 [16, 32]
-0.07670587 -0.00081487 -0.033862814 -0.05451539 0.08503963 -0.09473977 0.06418803 -0.12905881
-0.15617166 -0.14858997 -0.0077192336 -0.02732861 -0.10587229 -0.07515636 0.061783805 -0.012526169
0.16346584 0.027184084 -0.0006855875 -0.09314228 -0.02166766 -0.1298575 -0.03109026 -0.06195572
-0.0868915 -0.13847916 -0.17471008 0.07547499 0.098569825 0.13503744 0.14238514 -0.8038576
-0.012309134 0.059592858 0.046987265 0.102625504 -0.11069208 -0.106595576 -0.06472169 -0.113803335
-0.08483678 0.12576066 0.110947624 -0.088614166 -0.027315408 0.09378658 -0.07515243 -0.0028647482
0.010948315 0.13682716 -0.044025645 -0.1714973 -0.004395172 0.111779794 -0.056578606 -0.10258696
-0.08601344 0.08849381 -0.023582682 -0.042897627 -0.08767417 -0.04656297 0.08640374 0.100383386
0.13210873 -0.01757574 0.14411683 0.116088524 0.1408111 -0.058714524 -0.15920097 -0.15346198
0.030847892 0.08630301 -0.095520854 -0.15568295 0.030685961 0.09962316 0.10970254 -0.060248435
0.08551882 -0.16823232 0.07726054 -0.03055434 -0.06396629 -0.006032884 -0.13962176 -0.12011462
0.008666873 0.07458745 -0.0071430206 -0.09553352 -0.16406688 0.0026213229 -0.06940083 -0.16859628
-0.054200932 0.0736679 0.018018603 0.09962632 -0.15204425 -0.16320616 -0.17130964 0.008925036
-0.015118957 0.021400288 0.072854936 -0.13095155 -0.03186588 0.030446842 -0.074872866 -0.10449175
-0.056923658 0.06802364 0.11551021 0.5067548 -0.10219148 0.59140486 -0.17297941 0.093909785
0.13365035 -0.0010620207 0.004779011 0.111518815 0.010743991 -0.102492474 0.12402852 -0.15701538
0.12141685 0.10364483 0.064898595 0.17303784 -0.10610709 0.12998064 0.13325752 0.016301468
0.08940892 -0.013726994 0.17596255 -0.059853055 -0.16515508 -0.07936009 0.04548566 -0.018707767
0.09607057 -0.04285291 -0.15730076 0.09147166 0.08375402 -0.046665058 0.15646376 0.10782565
0.04451911 0.017288998 -0.11464986 0.14567964 0.13807072 -0.12277529 0.0019287914 -0.15180673
0.030401245 -0.04735653 0.09335436 0.11992751 -0.08481956 0.062489256 0.14231853 -0.014880598
0.14126272 -0.02470532 0.11194126 0.037191257 -0.1718245 -0.07488462 0.08329986 0.1087762
-0.13356476 -0.020924628 0.068899795 0.0895405 -0.17542711 0.020527408 0.029182598 -0.08655504
-0.092279635 -0.038705364 0.13942908 -0.04984647 0.16671853 0.09950556 0.03237717 -0.04399903
-0.07645244 -0.13622993 0.041976497 0.10760383 -0.094839066 0.012519255 -0.035462126 0.13166957
0.073341504 -0.106826514 0.110335186 0.11630766 0.00072059035 -0.041041523 0.13253693 -0.16892184
-0.13028294 0.12041591 0.0947011 -0.089569025 0.026665285 -0.050989658 0.037305623 -0.16790229
0.09869294 -0.12560298 -0.08942787 0.117119774 -0.06040094 0.09721796 0.12871028 0.07156092
0.07904421 0.008471027 -0.09485007 -1.5524545 0.14287247 -0.022099257 0.16449694 0.06134902
0.087039575 -0.009502053 0.030197978 0.1147172 -0.061868288 0.14895909 0.10131149 -0.14537957
-0.0138626695 -0.03348966 -0.0909137 0.15727927 0.0302701 0.018311352 -0.09016195 -0.097734645
-0.09209649 -0.119252734 -0.06268998 -0.13182506 -0.13076751 0.058907315 0.06708507 0.14089666
00000000: f817 9dbd 009d 55ba bcb3 0abd 884b 5fbd
00000010: 4229 ae3d ed06 c2bd 0475 833d fe27 04be
00000020: 77eb 1fbe f827 18be a0f1 fcbb 40e0 dfbc
00000030: 92d3 d8bd 94eb 99bd 0411 7d3d 903a 4dbc
00000040: 9763 273e 28b1 de3c 00b9 33ba 61c1 bebd
00000050: 6080 b1bc 5df9 04be 00b1 febc 48c5 7dbd
00000060: 2cf4 b1bd 7bcd 0dbe 33e7 32be a292 9a3d
00000070: fade c93d 4147 0a3e 69cd 113e 9dc9 4dbf
00000080: 40ac 49bc a417 743d b875 403d 522d d23d
00000090: 87b2 e2bd c84e dabd ce8c 84bd b911 e9bd
000000a0: e8be adbd 67c7 003e 8238 e33d 587b b5bd
000000b0: 90c4 dfbc 2e13 c03d 84e9 99bd 80be 3bbb
000000c0: 9060 333c 6b1c 0c3e 3c54 34bd fd9c 2fbe
000000d0: 6005 90bb ceec e43d f8be 67bd 1d19 d2bd
000000e0: d027 b0bd 3e3c b53d 7830 c1bc 6cb5 2fbd
000000f0: 848e b3bd d0b8 3ebd 72f4 b03d ce95 cd3d
00000100: 8347 073e 00fb 8fbc 5d93 133e d2bf ed3d
00000110: c930 103e a47e 70bd 9405 23be 2325 1dbe
00000120: b8b4 fc3c a2bf b03d 70a0 c3bd 5a6b 1fbe
00000130: 2061 fb3c 3a07 cc3d baab e03d 10c7 76bd
00000140: 7e24 af3d 1845 2cbe c63a 9e3d 184d fabc
00000150: c200 83bd 80af c5bb 02f9 0ebe a7fe f5bd
00000160: 80ff 0d3c 4ec1 983d 0010 eabb 14a7 c3bd
00000170: 2601 28be 80ca 2b3b 0622 8ebd 81a4 2cbe
00000180: cc01 5ebd 32df 963d c09b 933c e208 cc3d
00000190: 7db1 1bbe 841f 27be cb6b 2fbe 503a 123c
000001a0: 80b5 77bc a84f af3c f834 953d 2a18 06be
000001b0: cc85 02bd a86b f93c f256 99bd c5ff d5bd
000001c0: c828 69bd fa4f 8b3d 9e90 ec3d afba 013f
000001d0: c449 d1bd 4f66 173f 8421 31be c653 c03d
000001e0: a3db 083e 8033 8bba 4099 9c3b fa63 e43d
000001f0: 9007 303c 93e7 d1bd aa02 fe3d a4c8 20be
00000200: 66a9 f83d be43 d43d 8ee9 843d d530 313e
00000210: ad4e d9bd a519 053e a974 083e a88a 853c
00000220: 061c b73d 30e7 60bc 872f 343e 7a28 75bd
00000230: 6a1e 29be 8b87 a2bd 2c4f 3a3d 0841 99bc
00000240: a6c0 c43d 8886 2fbd 7313 21be 7e55 bb3d
00000250: 3a87 ab3d dc23 3fbd 0938 203e b2d3 dc3d
00000260: ac59 363d a8a1 8d3c 8ccd eabd 0b2d 153e
00000270: 6962 0d3e 9c71 fbbd 80cf fc3a 3973 1bbe
00000280: 080c f93c ecf8 41bd 9230 bf3d 8e9c f53d
00000290: e1b5 adbd bcf4 7f3d f3bb 113e c0cd 73bc
000002a0: 2da7 103e d062 cabc 7641 e53d dc55 183d
000002b0: c3f2 2fbe 1c5d 99bd 1e99 aa3d 0ec6 de3d
000002c0: 33c5 08be 206a abbc 561b 8d3d 0261 b73d
000002d0: 2aa3 33be 1829 a83c 5810 ef3c c543 b1bd
000002e0: 1bfd bcbd 8489 1ebd 7fc6 0e3e d02b 4cbd
000002f0: 43b8 2a3e 92c9 cb3d ec9d 043d 5438 34bd
00000300: 1993 9cbd dc7f 0bbe 8cef 2b3d 665f dc3d
00000310: fc3a c2bd 901d 4d3c bc40 11bd 63d4 063e
00000320: 1234 963d dcc7 dabd 6af7 e13d b632 ee3d
00000330: 00e6 3c3a 281b 28bd c3b7 073e d9f9 2cbe
00000340: e468 05be 9e9c f63d a6f2 c13d f76f b7bd
00000350: 2871 da3c 88da 50bd c8cd 183d 94ee 2bbe
00000360: 861f ca3d 119e 00be f625 b7bd 7edc ef3d
00000370: fa66 77bd 361a c73d a1cc 033e 888e 923d
00000380: eee1 a13d 10ca 0a3c c140 c2bd d4b6 c6bf
00000390: 294d 123e 8009 b5bc e371 283e 1c49 7b3d
000003a0: ce41 b23d 80ae 1bbc c061 f73c daf0 ea3d
000003b0: 9a69 7dbd bb88 183e 667c cf3d 62de 14be
000003c0: 4020 63bc 742c 09bd f630 babd d10d 213e
000003d0: 00f9 f73c b001 963c d4a6 b8bd 1a29 c8bd
000003e0: 169d bcbd c73a f4bd 9b63 80bd 26fd 06be
000003f0: ebe7 05be cc48 713d e663 893d 3747 103e

layer3.bias f4 [16]
0.026550591 -0.1245171 -0.0793394 0.12157445 -0.03241813 -0.10014034 0.122596815 -0.032795668
0.054660305 -0.004325196 -0.09814016 0.4681257 0.03447357 0.07858877 0.0043607205 1.0447574
00000000: a080 d93c d202 ffbd b27c a2bd 06fc f83d
00000010: e0c8 04bd 6116 cdbd 0a14 fb3d c054 06bd
00000020: 7ce3 5f3d 60ba 8dbb b5fd c8bd 2cae ef3e
00000030: 2834 0d3d 26f3 a03d 60e4 8e3b 9cba 853f

out.weight f4 [1, 16]
0.20412812 -0.20282507 0.46684673 -0.40626243 -0.23139554 0.35108003 0.14833274 1.2018795
-0.21373159 -0.1299516 -0.1281099 -0.13226816 0.18157193 0.10112417 -0.113480985 -0.079535246
00000000: f606 513e 60b1 4fbe 8906 ef3e a101 d0be
00000010: f4f2 6cbe c3c0 b33e 8ae4 173e 30d7 993f
00000020: 74dc 5abe 0812 05be 3e2f 03be 4e71 07be
00000030: feed 393e 301a cf3d b868 e8bd 60e3 a2bd
